Deep Learning/class4/src/mnist_model.pth (torch, 475696 bytes, 6 tensors)

fc1.weight f4 [128, 784]
000000 68 0f 92 3c a8 e0 b0 bc 94 7f 21 3d 1d 76 46 3c
       0.017829612 -0.0215915 0.03942831 0.012113121
000010 88 33 1d 3d 05 2a ce bb ec 68 a3 bc 2d 95 42 3c
       0.038379222 -0.00629163 -0.019947492 0.011876387
000020 0c 32 01 3d a4 b9 62 bc 7b 37 43 bc 9d ed 6a 3c
       0.03154187 -0.0138382055 -0.011915083 0.014338878
000030 a9 0e 53 bc d1 a2 93 3c 72 8c 75 bc 7a f7 a5 bc
       -0.012881913 0.018021973 -0.014987098 -0.020259608
000040 d9 6d 4c 3c a1 2f cf bb 33 63 02 3c ca f9 d1 3c
       0.012477362 -0.0063228165 0.007958221 0.025631804
000050 a5 7b 26 3b 7c 30 a8 3c 48 eb 8c 3c 50 ac 90 bc
       0.0025403288 0.020530932 0.017202035 -0.01766029
000060 67 03 e4 bc 01 f3 9f ba aa 5e 05 3d 8d cb f7 3b
       -0.027833654 -0.0012203158 0.03256098 0.007562107
000070 85 cb bc bb 7d 28 f8 3b 2f e4 87 3c a4 61 09 3b
       -0.005761566 0.007573186 0.016588299 0.002096274
000080 67 55 3d b7 a1 40 5a 3c 70 94 90 bc 75 66 2b 3b
       -1.1285162e-05 0.013321073 -0.017648906 0.0026153598
000090 97 f7 41 bc b5 a0 c8 bc 18 b3 b2 bb 0a e4 c2 3c
       -0.011838815 -0.024490694 -0.0054534785 0.023790378
0000a0 2c b4 a0 3c 33 50 d7 b9 b9 43 7d 3c f5 64 46 3c
       0.019617163 -0.0004106775 0.015458041 0.012109031
0000b0 80 c9 cc 3c 64 d0 29 3d ad b1 fc 3b 45 4a 4a 3c
       0.024998426 0.041458502 0.0077116103 0.012346809
0000c0 b1 74 71 3c a4 a5 99 ba 36 e9 f6 3c 60 c2 03 3d
       0.014737294 -0.0011722338 0.0301405 0.032167792
0000d0 88 7b b3 bc 35 1e 55 3c 90 06 1d 3d 39 64 3e 3c
       -0.02190949 0.01300769 0.038336337 0.011620575
0000e0 a7 f9 0d 3d b3 bd 65 bb e1 46 58 3c 4d d2 45 bc
       0.034661915 -0.0035055696 0.013200493 -0.012074065
0000f0 29 f6 35 bc 7e 52 25 3d 58 d7 e2 bb 36 17 e6 3c
       -0.011106052 0.040361874 -0.0069226436 0.02808724
000100 95 b4 2b 3b 20 41 b4 3c 22 66 c3 3c 80 1c 89 bc
       0.0026200165 0.02200371 0.023852412 -0.016737223
000110 71 5e 6f 3c 72 13 d1 3c d8 ec 0a bc ad e8 db 3c
       0.014609919 0.025521968 -0.0084793195 0.026844347
000120 56 0f 90 bb 95 80 1b 3c c6 c5 fb 3c 15 d7 ce 3c
       -0.0043963594 0.009491106 0.030733954 0.025249043
000130 0a 9e d9 3c f4 99 ab 3c 51 a2 b8 bc 41 d5 69 3c
       0.026564617 0.020947434 -0.022538336 0.014272035
000140 e2 b1 ed 3c 90 6c 12 3d f5 d8 e6 bc 70 7e da bc
       0.029015485 0.035748065 -0.028179625 -0.026671618
000150 e3 bf 26 3c 81 d7 ea bc 25 8b 06 3c 04 ab 1a 3d
       0.010177585 -0.028667213 0.008211886 0.03776075
000160 d4 ac 13 3b 10 56 8f 3b 54 2c 09 3d 83 ae be bc
       0.0022533434 0.004374273 0.03348954 -0.023276573
000170 55 d3 8e 3a 39 b8 37 3c bd c5 f2 ba 60 8b c4 bc
       0.0010896722 0.011213356 -0.0018522065 -0.02399224
000180 34 bf ff bb bf 74 de 3b f7 b6 3b 3c 35 a2 e0 3c
       -0.0078047756 0.0067888196 0.011457196 0.027421096
000190 09 4a 1b ba c3 fc a9 bc 9c 70 b1 3c f9 ad 02 3d
       -0.0005923813 -0.020750409 0.021660142 0.031904195
0001a0 ef a4 b2 3b 61 5d 1a bc ba a2 56 bc b8 e7 cc bc
       0.0054517905 -0.009421677 -0.0131003205 -0.025012836
0001b0 2f 21 16 3c db 14 0d 3d 38 01 82 3c 7a 8e 12 3d
       0.009163185 0.034443717 0.015869722 0.035780407
0001c0 f6 2d c6 3b 9f 04 10 3d 08 2d 2a 3d 92 c4 84 3c
       0.0060479594 0.035160657 0.04154685 0.016207013
0001d0 80 e2 a0 bc 78 4d ca 3c 92 8c 05 3d 9a 0d 8e 3c
       -0.019639254 0.024695143 0.03260476 0.01734047
0001e0 ea 59 b1 bc 52 b6 54 bc 73 ff 95 bb 0e f0 3f bc
       -0.02164932 -0.012982922 -0.004577571 -0.011714948
0001f0 5b fb de 3c 59 10 7c bc 4b 10 f4 ba 0f 68 06 bd
       0.027219465 -0.015384757 -0.0018620578 -0.03281408
000200 f6 b1 9d 3c 84 85 57 3c 63 cc d9 bc 6e 5f b1 bb
       0.019249897 0.013154391 -0.026586717 -0.0054129874
000210 ea 6a c2 3b 50 75 fe 3c 09 6f 45 bc 7e b0 b9 3c
       0.0059331553 0.031061798 -0.012050399 0.022667166
000220 d5 8c 73 3c 2c 61 d9 ba 6e 72 2a bc 51 c7 c1 bc
       0.01486512 -0.0016584746 -0.010403259 -0.023654612
000230 55 19 98 bc f8 f8 97 3b cd 73 7b bc dc e7 28 bc
       -0.018566767 0.0046378337 -0.015347433 -0.010309186
000240 fe bf d2 bc 7e f9 ca 3c e9 ee 3b bb 71 34 5d 3c
       -0.025726315 0.02477717 -0.0028676337 0.013501273
000250 04 ed 98 3c ae 4d be bc 27 2f 74 3c 30 d4 19 3c
       0.018667705 -0.0232304 0.01490382 0.009388968
000260 cf d4 cc 3b de 9f 66 bc f0 c1 5e 3c b3 36 83 3b
       0.0062509547 -0.014076201 0.013596043 0.0040043234
000270 ca 4f 1f 3d c1 56 a9 bc 16 c4 d2 3c 8f bb 5c 3c
       0.038894452 -0.02067125 0.025728267 0.013472452
000280 0a 2b 5c 3c a8 e2 a2 bc 27 73 22 3d 6c 74 ba 3c
       0.013437996 -0.019883469 0.0396606 0.022760592
000290 7b a6 f5 bb d8 f1 b6 3c 28 51 96 3c 81 54 39 3c
       -0.0074966527 0.022332117 0.018349245 0.011311651
0002a0 c1 9a 22 bb 0a b4 a0 bc 52 f2 02 3d 2a d6 f1 3c
       -0.0024811479 -0.0196171 0.031969376 0.029521067
0002b0 cf 9f a7 3b 8a 83 e7 3c 25 70 f6 3c e3 65 c0 bc
       0.005115486 0.028260965 0.030082772 -0.023486083
0002c0 2b 99 25 3c de ea 57 bc 0a a2 f8 bc 0d 40 cf bc
       0.010107319 -0.013178555 -0.030350704 -0.025299096
0002d0 24 b3 13 3c 4d 32 aa bc 0b c2 ce bc 90 be 07 3b
       0.009014878 -0.020775938 -0.025239011 0.002071295
0002e0 a4 8f 52 3c 63 51 64 bc 81 02 6d bc 74 7d df bc
       0.012851629 -0.01393542 -0.014465929 -0.0272815
0002f0 aa a9 78 bc ff 47 f5 3c 90 7a ae 3c f3 67 1b 3d
       -0.01517717 0.029941557 0.021298677 0.03794093
000300 48 63 b8 3c e8 97 f3 3c b8 ee 83 bc 91 03 e1 bb
       0.022508278 0.02973552 -0.01610504 -0.00686688
000310 50 88 e2 bb 74 79 09 3d 9a 62 96 3c b2 fd 96 3c
       -0.0069132224 0.033563092 0.018357564 0.018431518
000320 27 82 a6 bb 41 e1 59 bc 63 97 d5 bc 8d cb 5d bb
       -0.0050814333 -0.013298334 -0.026073163 -0.003384325
000330 87 6b 1c 3c 8a 82 e1 3c c7 33 1d bd 58 26 c9 3c
       0.009547121 0.027528066 -0.038379457 0.024554417
000340 c4 38 e0 3c e3 ff 05 bc 14 5f ec bc a0 08 8e bc
       0.027370818 -0.008178684 -0.02885393 -0.017338097
000350 7a b0 77 ba 68 b8 31 3c d6 11 da 3c ea 2c 8b b9
       -0.00094485993 0.0108471885 0.026619833 -0.0002654561
000360 c2 8a a2 3c 3f 9c 9b 3c 59 3d 5e ba b1 ef ad 3c
       0.019841556 0.018995402 -0.00084777694 0.021232458
000370 f5 27 2e bb 7c 69 c2 3c db 7e 7a bb 1a ea ae 3c
       -0.002657411 0.02373194 -0.0038222584 0.021351863
000380 3d c9 d1 bb 27 b3 82 3c 6e b7 d4 3b e8 62 87 bc
       -0.0064021633 0.015954567 0.006491593 -0.016526654
000390 91 55 4c bb d5 fa c6 bc 20 64 dd bc cc fa 8e bc
       -0.0031178931 -0.024289528 -0.027025282 -0.017453574
0003a0 9b ff 09 3c 4f f2 4d bc b2 fb c8 ba 0c ee 30 3c
       0.0084227575 -0.012569978 -0.00153338 0.010798942
0003b0 e9 c4 33 3a e2 f8 e8 bc a4 c2 18 3d 32 1f cd ba
       0.000685765 -0.02843899 0.037295 -0.0015649556
0003c0 89 16 a0 bc fd 17 88 b8 da 37 a5 bc 13 d5 04 bd
       -0.019541996 -6.4894535e-05 -0.020168234 -0.032429766
0003d0 64 2f 26 bd 2a c1 dc 3c 73 a1 b2 3c 4c 44 40 bb
       -0.04057254 0.026947577 0.0218055 -0.0029337583
0003e0 45 af 7f bc 00 17 41 bc e0 00 c7 3c 31 a5 23 bb
       -0.015605752 -0.011785269 0.02429241 -0.0024970288
0003f0 96 b1 f4 3c 3e 3f f9 3c f0 83 9e bc a8 eb c2 3c
       0.029869836 0.030425664 -0.019350022 0.02379401

fc1.bias f4 [128]
000000 ec 39 0c bd a2 b4 a8 3b 8a 31 16 bd e8 90 b9 3b
       -0.034234926 0.0051484862 -0.036668338 0.005663026
000010 81 ae e7 bc a6 cd af bc 17 1a cd 3c 48 42 d4 3c
       -0.028281452 -0.021460366 0.025036855 0.025910512
000020 f5 e5 c7 bc e6 69 5d 3a cd 75 13 bd f0 55 6f 3b
       -0.024401644 0.0008446261 -0.036001015 0.0036519729
000030 04 b1 31 3d 89 7a 77 bb 84 57 bf 3c 60 e0 7c bd
       0.043381706 -0.0037762246 0.02335716 -0.06173742
000040 b3 b0 12 bd 73 c0 7a bc 9a e6 d9 bc 06 84 1c bd
       -0.035813045 -0.0153046725 -0.026599217 -0.038211845
000050 e6 03 18 3d a4 91 ae bc 00 45 ca ba 1f 51 0f bd
       0.037113093 -0.021309681 -0.001543194 -0.034989472
000060 ce bf 40 bc ce 95 15 3c 92 0a 35 bd c9 e0 b1 3c
       -0.01176448 0.0091299545 -0.044199534 0.021713631
000070 a9 53 90 bc 55 4b ea 3c aa 13 ca 3c d8 45 91 bc
       -0.017618017 0.028600374 0.02466758 -0.0177335
000080 8c b5 f1 bc c8 ae 3c 3c 14 48 26 3c c0 9b d2 bc
       -0.029505514 0.0115162805 0.010149021 -0.025709033
000090 d0 88 12 3d 62 85 ee 3c 9f 92 c3 bc 55 42 bc 3c
       0.035775006 0.029116336 -0.023873625 0.022980848
0000a0 7b 9f 08 3c 19 60 d1 bb f3 da 8a 3c 70 f1 17 bd
       0.008338804 -0.0063896296 0.016950106 -0.037095487
0000b0 18 4c 55 bb 1f 06 f3 3c c8 6d 2c bd 1c 91 cd bc
       -0.0032546576 0.029666005 -0.042096883 -0.025093608
0000c0 37 bf 6e bd 57 69 cd 3c 23 ad f4 bb d9 b3 e4 bc
       -0.058287825 0.025074644 -0.0074669286 -0.02791779
0000d0 9c cc ed 3c a8 1a 4d 3c 61 38 7c bc ea 45 ef bc
       0.02902823 0.012518562 -0.015394301 -0.029208142
0000e0 a3 3e e3 3c 6d 24 24 3c 30 f5 f6 3c 69 e1 96 bc
       0.027739828 0.01001845 0.030146211 -0.01841803
0000f0 f7 c2 98 bc 74 2b 2b bd c7 6a 14 bd 2e 65 0e 3d
       -0.018647654 -0.041789487 -0.036234643 0.03476446
000100 08 b2 c2 3b 35 65 10 bc 77 07 a5 3c b2 bb f9 3b
       0.005941633 -0.008813192 0.020145161 0.007621252
000110 ab 4e 17 bd a0 fa d8 3c 33 4d 05 bd 61 21 07 bc
       -0.036940258 0.026486695 -0.032544326 -0.008247704
000120 18 79 4d 3b ed d5 b7 bc 86 b1 c9 3c 84 a5 aa 3b
       0.0031352695 -0.022440875 0.024620783 0.0052077193
000130 83 d6 16 bd cc 83 84 bc 79 51 bd 3b 1e 36 a1 3c
       -0.036825668 -0.016176127 0.0057775346 0.019679125
000140 81 14 d8 3b 81 17 b9 bc 9d 0e 5c bc a2 f1 9a 3c
       0.006594241 -0.022594215 -0.013431218 0.018914048
000150 ca f9 1e bd 51 49 8e 3c ca d0 fe bc 3e e7 30 3d
       -0.038812436 0.017368944 -0.031105418 0.04318928
000160 53 ed 19 bd 77 d6 e8 bc 36 32 6f bc 7e 95 43 3c
       -0.037579846 -0.028422577 -0.014599374 0.011937497
000170 53 7b 81 bc 4c 8f 1d bd 4a 06 9c bc 84 87 8a bc
       -0.015805876 -0.038466737 -0.019045968 -0.016910322
000180 56 5b c6 3c 4c 4e c5 bc 1e 3a 03 bd 2d 50 0e 3d
       0.024213474 -0.024085186 -0.032037847 0.03474443
000190 95 4b 77 bc 86 bd 4a bd 3c 95 22 bd 4f a5 8d 3c
       -0.015093704 -0.04949715 -0.039693102 0.01729074
0001a0 9b 7b 47 bd 77 a3 68 bb 19 b7 a5 bb b6 b5 a7 bb
       -0.048701864 -0.0035497823 -0.0050572273 -0.005118097
0001b0 29 cf 1a bc 72 2d 8f bb e3 64 6e 3c e2 c2 1d 3d
       -0.009448805 -0.004369431 0.01455042 0.038515933
0001c0 e2 67 71 3c 5e 24 85 bc 95 1d bd 3c d7 3f f8 3a
       0.01473424 -0.016252693 0.023085395 0.0018939924
0001d0 47 27 fc bc ce ed 5f bc 6f 80 ea bc 02 74 ac bc
       -0.030780448 -0.013667537 -0.028625695 -0.02105141
0001e0 76 16 e4 3b b3 08 d6 bb 08 04 2a b8 73 95 fe bc
       0.0069606854 -0.0065317987 -4.0534913e-05 -0.031077122
0001f0 95 ab 85 ba ad 44 69 bc d5 17 05 bc 4d 96 9b ba
       -0.001019823 -0.014237565 -0.008123358 -0.0011870355

fc2.weight f4 [128, 128]
000000 49 b5 c2 3c da 7a c7 3d 85 3b f8 bd 70 45 21 3d
       0.023768084 0.09740229 -0.121207274 0.03937286
000010 38 06 11 bd c5 be 5c 3c 78 6a ae 3d ea 29 f8 bc
       -0.03540632 0.013473217 0.08516401 -0.030293424
000020 de dd a4 3d 03 5b 30 be 48 c9 9b 3d 35 3c 2b be
       0.0805013 -0.17222218 0.07606751 -0.16722186
000030 5f a0 4c bd 36 22 04 be 8a 95 7f 3d c6 58 45 be
       -0.04995763 -0.12903675 0.06239847 -0.19272146
000040 22 57 27 3d ed a8 a0 bc 97 2c 95 3d 82 53 8a bd
       0.04085458 -0.0196118 0.072838955 -0.06754209
000050 e9 9a 77 bd ee 8c 4b 3d fb 65 a7 3d e7 9a 51 bd
       -0.06045047 0.049694948 0.08173748 -0.051173117
000060 6c 4f eb bb 28 eb e8 bd 63 b9 4f be e0 ec 99 bd
       -0.0071810987 -0.113729775 -0.20285563 -0.075158834
000070 b8 3d 1f 3e b2 16 82 bd 12 ea 07 3d c2 98 a8 3d
       0.15550888 -0.06351985 0.03318221 0.08232261
000080 80 8f 07 be 3b 05 57 be 02 78 79 3d 7e d3 20 bb
       -0.13238335 -0.20998089 0.060905464 -0.0024540122
000090 a0 16 d6 3d 26 da 97 3d c2 c6 0a 3d 9f 88 0d 3d
       0.10453534 0.074146554 0.033880956 0.03455412
0000a0 4d c6 ff bd f4 42 7e bd e5 e1 04 be cf 41 05 bd
       -0.12488995 -0.06207557 -0.12976797 -0.032533463
0000b0 68 f1 b7 3d be 04 6f 3e 3e 11 83 bd a3 29 cc 3c
       0.089815915 0.23341653 -0.06399773 0.024922198
0000c0 72 64 c7 bc c2 54 3b 3e 28 43 a6 be da 53 4a be
       -0.024339888 0.18294051 -0.3247311 -0.1975855
0000d0 a5 0c 4c 3d 80 43 c3 bd a5 b1 7e bd f3 1e 2f bd
       0.049816746 -0.09534359 -0.062181134 -0.042754125
0000e0 53 f0 85 bd 7a 0e 92 bd d4 60 0d be e1 dc a7 3d
       -0.06539979 -0.071316674 -0.13806468 0.08196426
0000f0 19 e6 c9 3d f3 bd 97 bc 99 ee be bb e3 2c 32 3d
       0.09858341 -0.018523192 -0.005826783 0.04349984
000100 9f b5 6a 3a 07 39 51 3e f6 0b 29 be ad fc f3 be
       0.0008953455 0.2043191 -0.16508469 -0.47653714
000110 48 75 1b 3c 28 4c 37 3e 06 57 0b 3e a3 85 8a 3c
       0.009488411 0.17900145 0.13607416 0.016909426
000120 2a 28 88 bb 25 79 e5 bd 52 2c 9b bd 91 5a e9 bc
       -0.0041551786 -0.11204747 -0.07576813 -0.028485568
000130 68 06 3b bc 69 4d 1d 3e 61 e4 5a be e0 72 5f 3d
       -0.011415102 0.15361561 -0.21376182 0.054552913
000140 71 88 12 bd 2b dd d0 bc b1 b3 a6 3d 38 dc 69 bc
       -0.035774652 -0.025496086 0.08139742 -0.014273696
000150 18 bc ac bd db 23 b9 bd 71 67 94 3d f5 8e 9a be
       -0.084343135 -0.09040042 0.072462924 -0.30187193
000160 cf 76 c0 3b 77 58 a2 3d 98 4c 86 bd 38 d2 7c 3d
       0.005873538 0.079270296 -0.06557578 0.061723918
000170 cc 03 2c 3e d9 57 8b bb 50 74 83 bd fa 78 43 3e
       0.16798323 -0.0042524156 -0.06418669 0.19089118
000180 8d 79 b3 bd 32 62 12 3d c0 75 95 bd cc b0 f3 bd
       -0.08763418 0.035738178 -0.0729785 -0.11898956
000190 0f 28 5a bc a0 35 d8 bd 66 d4 a0 3d 26 cc 20 3d
       -0.013315215 -0.10557103 0.07853012 0.03925719
0001a0 b0 5a 94 bd bf cc 02 be b5 4d 8c 3d fe a3 b4 3c
       -0.0724386 -0.12773417 0.06850759 0.022050854
0001b0 30 ce d1 bd e8 81 3d 3e ac ae 08 be de 47 ff bc
       -0.10244405 0.18506587 -0.13347882 -0.031162199
0001c0 aa cf bb 3d d1 61 36 3e 93 04 f0 3c 1e 0e 8f 3d
       0.09170468 0.17810751 0.029299056 0.069851145
0001d0 f9 dc 26 3d 8f cb 05 3e 91 f2 92 bd 90 dc 78 3d
       0.04073808 0.13065933 -0.07175172 0.06075722
0001e0 09 bf bb 3d 16 90 11 3d 7c 71 06 be 21 b8 0e 3c
       0.091672964 0.0355378 -0.13129228 0.008710892
0001f0 3d 37 1e 3e 7d ae 3f 3d 91 53 d1 bd e4 16 11 bd
       0.15450759 0.046797264 -0.10221017 -0.03542222
000200 1a 72 08 3d f2 1e 17 be 79 26 cc bd 35 1a f3 bc
       0.03331194 -0.14757898 -0.099682756 -0.029675582
000210 5d fe b9 3c 98 71 6f 3d 8b 93 b2 bc 88 2e ab bd
       0.022704298 0.05845794 -0.02179887 -0.083584845
000220 aa d2 e3 3d 0e 25 8f bd f4 c8 2b bd 5b d0 41 3d
       0.11124165 -0.069894895 -0.04193969 0.047317844
000230 e9 cb 81 3b 93 cd 72 bc f1 05 6f 3d 36 e1 a6 3d
       0.0039610756 -0.0148195205 0.058355276 0.08148424
000240 02 c8 60 3d 38 18 92 bc e1 5a 80 bd 0b 30 13 3d
       0.054878242 -0.017833814 -0.06267334 0.03593449
000250 7d b4 a5 3d 2f 90 9b 3d 3e da 49 3d ec e1 01 bd
       0.08091066 0.0759586 0.049280398 -0.031709597
000260 77 d9 1b bd 67 58 de bd 6f 97 a0 3d fd 8d 39 3c
       -0.038049188 -0.10856705 0.07841384 0.011325357
000270 24 ba 4e 3a 66 62 8c 3c 83 3b c7 3d c9 aa af bc
       0.00078860135 0.017136764 0.09728148 -0.021443741
000280 4b 47 8e 3c ca 4a 91 ba 6f 38 97 3d af 9a 56 bc
       0.01736798 -0.0011084911 0.07383811 -0.013098403
000290 e6 55 79 3c f5 a8 0f 3e 50 52 9d bd b7 4a de be
       0.015218234 0.14029296 -0.076817155 -0.43416378
0002a0 4d 6e ac be f6 78 db 3d 6e 6a 4b 3e 8f 2b 51 b9
       -0.33677903 0.10716431 0.19864818 -0.0001994802
0002b0 2e ca 3f 3d 68 c7 40 be 27 95 19 bb 29 03 52 be
       0.046823673 -0.18826067 -0.002343485 -0.20509018
0002c0 aa d2 09 3c 3c e2 37 3b 36 14 89 3b 9b a3 96 bb
       0.008412043 0.002805843 0.0041833175 -0.00459714
0002d0 b0 df a0 3d 2a bb ef 3d af 8e 88 3d 18 1d cd 3b
       0.07855165 0.117056206 0.0666784 0.0062595718
0002e0 f8 9d 8f 3d 93 45 81 3d 41 e5 81 3d f4 61 90 bc
       0.07012552 0.06312098 0.06342555 -0.017624833
0002f0 08 6e f9 3d b6 6a 00 be 60 52 64 3d 04 2d c1 3c
       0.1217919 -0.12540707 0.05574262 0.023581035
000300 b4 07 0b be 67 b5 2e 3e 4d 5a a8 bd b8 92 0d 3d
       -0.13577157 0.17061387 -0.082203485 0.03456375
000310 79 3d 6b bd 5f 0e 41 be 66 43 8e bd 21 9a 2e bd
       -0.05743167 -0.18853138 -0.06946449 -0.042627458
000320 3b fc 73 bb b3 54 5e bd 82 e6 85 bd 05 1f 6e 3c
       -0.0037229198 -0.054279994 -0.065381065 0.014533763
000330 33 72 5f bd ca 6f 5b be 1b d6 17 3e d5 90 10 bc
       -0.05455227 -0.21429363 0.14827769 -0.008823593
000340 19 fe bf b8 17 96 ea bd 27 87 1f bc d8 b7 b0 be
       -9.154919e-05 -0.114544086 -0.009736813 -0.34515262
000350 24 b6 d0 bd 3a 8f af 3d 25 e7 be bc 26 b7 36 bd
       -0.101909906 0.0857224 -0.023303578 -0.044608258
000360 06 f3 18 bd 9e 8a 7c be 99 1e 0d bd 1b b0 1a 3c
       -0.03734114 -0.24662253 -0.03445301 0.009441401
000370 93 b5 b1 bd 95 b9 92 bd 31 3e c9 bd 6d c1 74 be
       -0.08677211 -0.07164303 -0.09826315 -0.23901911
000380 d4 59 28 bd 37 99 26 be cb 19 5a bb 87 28 85 bc
       -0.04110129 -0.16269384 -0.0033279534 -0.016254677
000390 08 8a 26 3e fb 3f 01 3c 66 7d 89 bd 30 d2 fa bb
       0.16263592 0.007888789 -0.06713371 -0.007654451
0003a0 73 13 0e 3d 8e ef 11 be 80 2a 73 3b e6 3d 6a bd
       0.034686517 -0.14251539 0.003710419 -0.057187937
0003b0 54 75 09 3d ed 45 62 bd 86 50 24 bd 66 70 0d 3d
       0.03355916 -0.055242468 -0.040115856 0.03453102
0003c0 d8 bf 48 3c 2a ff 0f 3e 78 65 84 3c fe 72 ac bd
       0.01225277 0.14062181 0.016161665 -0.084203705
0003d0 bc bb 18 be 74 c3 ad 3d 34 64 fa 3d fe 00 af bb
       -0.14915365 0.08484545 0.122261435 -0.0053406944
0003e0 00 78 fd be 80 29 2f 3d 91 21 25 3e 28 10 80 bc
       -0.49505615 0.042764187 0.16126086 -0.015632704
0003f0 2c bf ad 3d c2 f3 e6 bd 77 72 a8 bd 8c c0 81 3c
       0.08483729 -0.11276962 -0.082249574 0.015838884

fc2.bias f4 [128]
000000 68 ef 3b 3d 7f e1 81 3d 55 2c 77 3c 39 62 5f 3a
       0.045882612 0.06341838 0.015086253 0.0008521411
000010 75 d7 83 3d 12 fe 1f 3e 27 9d a6 bd 31 e6 95 3c
       0.064375795 0.15624264 -0.08135443 0.01829824
000020 5f c1 ea bd 73 0f 39 3e b5 1b 31 3c b3 e3 20 be
       -0.11462664 0.180723 0.0108098285 -0.1571186
000030 a6 e3 55 3d e7 17 40 be d0 e2 ce bd 20 76 87 bd
       0.052219056 -0.18759118 -0.10101855 -0.066143274
000040 20 e9 67 be 40 43 94 bd 64 ff 96 bc 21 d8 6f bb
       -0.22647524 -0.072393894 -0.018432327 -0.0036597329
000050 fe 8f 03 be 66 41 52 bd 3b e6 8e bc 43 b7 6e bd
       -0.12847897 -0.0513319 -0.017443767 -0.05828024
000060 92 bc 2d bb 99 de 47 bd 51 6a 6e 3c 65 6d 9d 3d
       -0.0026510102 -0.04879627 0.014551715 0.07686881
000070 ea 6c 09 3e 54 c6 85 3d 4d a5 8e 3c dc c9 63 3d
       0.13420454 0.06531969 0.017412806 0.05561243
000080 26 bb c8 3d dd 56 5a 3c fb 38 99 3c 0c e0 95 bc
       0.09801321 0.013326374 0.018703928 -0.01829531
000090 5e a0 78 bc 26 a4 d6 3d 18 68 c6 3d 37 d3 28 3e
       -0.015174953 0.104805276 0.09687823 0.16486822
0000a0 ad da 97 3d 52 da a9 bd 14 36 40 be 71 fb fd 3c
       0.07414756 -0.082935944 -0.18770629 0.031003686
0000b0 be af 07 3e 0e 61 74 bd c2 3d 78 3d 0b 05 03 be
       0.13250634 -0.05966287 0.06060577 -0.12794892
0000c0 ba 8d c0 3d 34 d2 92 3d 5b 6e 87 3d 7d fe b4 ba
       0.09402032 0.07168999 0.066128455 -0.0013808754
0000d0 00 e2 63 3d 78 37 9a 3d a4 7e 57 3c f8 f4 6f 3e
       0.055635452 0.07530111 0.013152752 0.23433292
0000e0 62 00 b9 3d 77 26 c8 bd 4f 8e 7e 3a f4 7c 99 bd
       0.09033276 -0.097729616 0.00097105367 -0.07494536
0000f0 9d 93 37 bd 57 5d 14 3d d5 c7 93 bd 94 44 34 be
       -0.04481851 0.03622183 -0.07215849 -0.17604285
000100 1b b5 e1 3d bf b8 df bd 0b 69 08 3e 36 48 8f 3d
       0.11020871 -0.109239094 0.1332132 0.06996195
000110 08 a8 a8 bd 76 da 30 3e e4 a6 92 bd 0e bf 05 bd
       -0.082351744 0.17270836 -0.07160738 -0.032652907
000120 41 0d de bd ca 61 1c 3b 18 52 06 bd 6b d5 22 be
       -0.10842372 0.0023861998 -0.032793134 -0.15901725
000130 58 02 88 bc 8b ba 02 3e 38 1f 8d 3d fa cb 01 3e
       -0.01660268 0.12766473 0.0689072 0.12675467
000140 46 90 9c 3c de 2f 47 bc e2 ed 2d 3e a4 a0 8d 3c
       0.019111764 -0.0121574085 0.16985276 0.017288513
000150 ad b2 58 3e 8c d2 8e bd 56 52 cb bd 7b 8c 51 be
       0.2116191 -0.069737524 -0.09927814 -0.20463745
000160 b8 e3 b6 bc 42 73 7f 3d 24 02 d9 3d 29 bb c5 bd
       -0.022325382 0.062365778 0.105961114 -0.096548386
000170 ad 8b a7 bc f5 93 46 bd dc 58 c1 bc 85 8e e8 bd
       -0.020452345 -0.048480947 -0.023601942 -0.113553084
000180 76 d8 db 3d 31 7d 5e 3e e6 7b 3d bd b2 36 9c 3d
       0.10734646 0.21727444 -0.046260737 0.0762762
000190 6e b3 9e bc 4a 4c ae bd 07 da c1 bc f8 e9 c6 bd
       -0.019372668 -0.08510645 -0.023663534 -0.09712595
0001a0 d6 8c 31 be 5c 40 ce bd 8b e6 c3 3c df a0 ca bd
       -0.17338881 -0.10070869 0.023913642 -0.09893965
0001b0 3e 7f 15 bc 7e b3 ac bd 06 4a 16 3e 47 2d 8d 3d
       -0.009124575 -0.08432673 0.14676675 0.068934016
0001c0 18 15 53 3e 5b 16 3e 3e 7c 46 c4 bd 27 f5 28 3d
       0.20613515 0.18563215 -0.09583756 0.04124942
0001d0 02 a0 f8 bd 43 3c 8f bd 8e cf d3 bd de 42 fe bd
       -0.12139894 -0.06993916 -0.10342322 -0.12415098
0001e0 31 b7 1d 3e db 2a 9d bd e2 7b 53 3d 1f f0 63 bd
       0.15401913 -0.0767419 0.051631816 -0.05564892
0001f0 73 b3 39 3c 7e 08 cd 3c ed 8d 9c 3d 7d 97 69 3d
       0.011334288 0.025028463 0.07644258 0.057029236

fc3.weight f4 [10, 128]
000000 b1 6d 4c bd 4d d9 b6 3d b5 fe c1 ba 28 4a 0d bc
       -0.049909297 0.089281656 -0.001480064 -0.008623637
000010 60 db 12 bc 5d e1 91 3d 55 14 ba 3b 4a 68 fc bd
       -0.008963436 0.07123063 0.0056786933 -0.12324579
000020 e8 b5 82 bd 04 81 34 3e 95 31 80 bd 72 d4 7a be
       -0.06382352 0.1762734 -0.06259457 -0.24495104
000030 3b db ec 3d 53 25 e6 bd a9 66 d3 3d 1e 91 a7 3c
       0.115652524 -0.11237588 0.10322315 0.02045494
000040 d1 e2 0a be ba 4b 09 be 8e cd 0e 3e e8 10 d8 bd
       -0.13563086 -0.13407794 0.139456 -0.105500996
000050 6d 04 7a 3d 5b 19 9f 3d 5b 9e ac 3d 63 c2 d5 3d
       0.061039377 0.07768508 0.084286414 0.10437467
000060 88 f4 6c be 6a 87 27 3e e0 96 cc 3c 34 fe 06 3d
       -0.23140156 0.1636025 0.024974287 0.03295727
000070 de f1 40 bc d1 3f 22 bd 8a b5 14 3e 99 7f 88 be
       -0.011776416 -0.03961164 0.14522377 -0.2665985
000080 50 da e7 3c 50 a1 9e be a1 3c 8f be 87 ab 53 3d
       0.028302342 -0.30982447 -0.27975944 0.051677253
000090 5b fe b7 be 03 36 ae 3d bb 86 b3 bd 5f fc 56 be
       -0.35936245 0.08506396 -0.08765932 -0.2099471
0000a0 86 1e b4 be e2 ee 0b 3d ae da 25 3e 2d 82 38 3c
       -0.35179538 0.034163363 0.16196701 0.011261505
0000b0 b2 15 ba 3d 27 be 04 3d 37 70 bc 3c e9 67 d2 3d
       0.09086169 0.032407906 0.023002727 0.102737255
0000c0 32 2c 93 be 6e 44 8c 3d 6a 00 20 be f1 86 2a 3d
       -0.28744656 0.068489894 -0.15625158 0.041632596
0000d0 55 0d fe bd 2d 99 a4 bd 8e 4a b8 be c4 da 76 be
       -0.12404887 -0.080370285 -0.3599438 -0.2410689
0000e0 a1 d6 11 be 15 f1 9f 3d 34 ef 08 3e ca f7 1f be
       -0.1424203 0.078096546 0.13372499 -0.15621868
0000f0 ed 42 fd bd 3f 06 34 bd 26 7a c6 bd 58 d0 61 bd
       -0.12366281 -0.04395127 -0.09691267 -0.055130333
000100 40 e3 13 3c c4 3e 4e bd a3 10 c6 bd 76 9e fc bc
       0.009026349 -0.050352827 -0.09671142 -0.030837279
000110 01 11 bd bb e8 3e 15 3d d3 d3 11 bd d9 ac 68 3d
       -0.0057698493 0.036436945 -0.035602402 0.056805465
000120 f9 64 e1 3d d7 10 1b bd ee 17 e2 bd 19 b2 6c 3e
       0.11005587 -0.037857857 -0.110397205 0.23114814
000130 b2 11 f9 bd 6a 24 33 bc 5c 31 d9 bd 75 5f 84 bd
       -0.12161578 -0.010933975 -0.10605118 -0.064635195
000140 3f 9b 14 be 97 ad ab bc 18 e0 98 3c c9 94 da 3d
       -0.14512347 -0.020956798 0.018661544 0.1067291
000150 2c df 3d be 0a 0d e4 be 01 0a 83 be bd 16 f8 bd
       -0.18542165 -0.44541198 -0.2559357 -0.12113712
000160 c3 97 35 be a9 48 f1 3d 21 fe ad be ce 69 52 be
       -0.17733674 0.11781437 -0.33982947 -0.20548174
000170 2d f9 23 3e 9b 8c 9e be 01 41 ae 3c 97 27 8c 3d
       0.16013022 -0.30966648 0.02127123 0.06843489
000180 db 19 e1 3d 98 bf 91 3d a0 70 16 bc 9a 5b 6c 3d
       0.1099126 0.07116622 -0.009182125 0.057704546
000190 26 46 da 3d 9a 36 a9 3d 59 e4 99 3d 9b 4e 06 3d
       0.10657911 0.082623675 0.07514257 0.032789808
0001a0 e5 23 8f bd bc df b6 bc 61 ca ad be b9 83 61 3c
       -0.06989268 -0.022323482 -0.33943465 0.013764315
0001b0 59 a2 44 be 8f 80 16 be 79 3e 72 bd 94 26 24 3e
       -0.19202556 -0.14697479 -0.05914161 0.16030341
0001c0 6d 91 08 be dc d0 02 be 80 5b 47 be b3 b3 00 3d
       -0.13336726 -0.12774986 -0.19468498 0.031421375
0001d0 b1 77 21 3e 37 dc e7 3d 25 d3 79 3d 7f d7 ee bd
       0.15768315 0.113212995 0.06099238 -0.11662196
0001e0 fd 35 5b 3d aa ee 1a 3c d5 99 b9 be a0 aa 04 3e
       0.053518284 0.009456316 -0.36250177 0.12955713
0001f0 78 95 8a 3c 13 08 e5 3d 86 57 d2 be 25 49 94 be
       0.016916975 0.11183181 -0.410824 -0.28962055
000200 28 40 01 3d ef 92 45 be 75 40 59 be 59 69 ad bd
       0.031555325 -0.19294332 -0.21215995 -0.08467359
000210 5e 0e 8b 3d ea 90 32 be 68 4c 92 3d a9 b9 06 3e
       0.0678985 -0.17438093 0.071434796 0.13156761
000220 a4 b1 40 3d 3a c4 79 be 52 57 37 bd fb 1e c6 3c
       0.04704441 -0.2439126 -0.04476101 0.024184695
000230 51 e1 a2 3d df 12 23 3e 10 af d2 3d 61 9a 41 be
       0.07953132 0.15925168 0.10287297 -0.18906547
000240 4d 93 af 3e d2 1b e9 3d 3c 0b 8e bd a7 27 50 bc
       0.3429207 0.113822594 -0.069357365 -0.012704766
000250 c9 4a 27 be 53 11 b2 be cf 76 1d 3d 1b d7 94 be
       -0.16337122 -0.34778842 0.038443383 -0.29070362
000260 7e 83 d0 bd c3 33 72 3d e1 67 5e bd 2b 45 09 bd
       -0.1018133 0.059131395 -0.054298285 -0.03351323
000270 d0 3f f3 bd 3e 6d e6 3c 12 33 05 bd f6 f1 20 be
       -0.11877406 0.028128263 -0.032519408 -0.15717301
000280 f5 02 12 be 65 c2 a4 be 1d c2 9f 3c c4 a0 a1 3c
       -0.1425894 -0.3217956 0.01950174 0.01972998
000290 d8 d9 66 be 95 9c 1b be fd cb 0a 3d 3c 0b ee bd
       -0.22544038 -0.1519645 0.033885945 -0.116232365
0002a0 63 bd cf 3d fb 03 5e bc 0d 3d 05 be ff 03 9b 3c
       0.101435445 -0.013550754 -0.1301157 0.018922804
0002b0 70 d3 3b 3d 80 e3 4d bd 74 66 6f 39 0e be 31 bd
       0.04585594 -0.05026579 0.00022830983 -0.04339414
0002c0 37 0d 12 3e 1a fd 0f bf ce b8 1b be d3 c4 01 3d
       0.14262854 -0.5624558 -0.15207216 0.031681847
0002d0 26 55 82 3d ac 1e 39 3c ad 9e 6f be 7c 59 fb 3c
       0.06363897 0.011298817 -0.23400374 0.030682318
0002e0 42 e9 f8 bb a0 64 06 3e bb c7 46 3c d7 5d ec 3d
       -0.007596166 0.13124323 0.01213258 0.11541336
0002f0 c8 f5 fd bc 5c 3b d4 bd 20 c5 a4 bd b0 05 38 3e
       -0.031000987 -0.103628844 -0.08045411 0.1797092
000300 da 83 a0 3d 0b e0 03 3d 2b e3 3a be 4c c5 d7 bb
       0.07837649 0.032196086 -0.1825072 -0.006584799
000310 88 d4 1d 3e 84 8c 68 3c 74 c0 42 3d ea 08 d7 3d
       0.15413105 0.014193658 0.04754682 0.10499747
000320 9f 46 1f be 10 0b f2 bd 38 c8 77 bd 97 ef ec 3d
       -0.15554284 -0.11818516 -0.060493678 0.11569136
000330 25 99 ec 3d 90 a6 9d bc 97 d8 f5 3c fc 28 b2 be
       0.115526475 -0.019244462 0.030010505 -0.34796894
000340 f7 18 3f be b8 74 07 bd 66 eb 91 be be 1b 94 be
       -0.18661867 -0.033070296 -0.28499907 -0.28927416
000350 56 9f 06 bc a6 af 04 3e 1d b7 b2 bc f9 49 0d 3e
       -0.0082167 0.1295763 -0.02181583 0.1379775
000360 62 97 55 3d 86 3f b0 be fb e8 cc 3d 3a 3a e0 3d
       0.052146323 -0.34423465 0.10005375 0.10948606
000370 b6 fa 87 bd ff 59 83 be 64 d5 6a 3c 4b c1 25 3e
       -0.06639616 -0.256546 0.014333103 0.16187017
000380 aa 15 2b be f1 99 5a bd 15 93 2a be a6 38 fb bc
       -0.16707483 -0.053369466 -0.1665767 -0.03066666
000390 19 d9 72 3d 38 e7 53 3d 7d af 77 bd 5a 61 3d bd
       0.05928907 0.05173418 -0.060470093 -0.04623542
0003a0 e7 f6 40 3e bb 57 54 bc e7 3c a7 3d 83 55 06 be
       0.18844186 -0.01296037 0.08165913 -0.13118558
0003b0 01 55 6c be 2b 1d b8 bd 81 62 26 3e 30 b6 53 3e
       -0.23079301 -0.08989938 0.16248514 0.20674968
0003c0 45 ae c2 3c 22 12 81 3d 7a 83 64 3d fb 2a 48 bc
       0.023764739 0.06302287 0.05578945 -0.012217279
0003d0 bb 5a d6 bc 63 07 d0 bd 7f b9 c5 bd 71 de 1a 3e
       -0.02616631 -0.10157659 -0.09654521 0.15123917
0003e0 19 4e 3b be f9 d0 2b bd 50 fc d1 3d b8 63 4b 3d
       -0.1829151 -0.04194734 0.10253203 0.049655646
0003f0 1a 48 dc be 63 35 16 bd 3c d1 8e 3d 85 08 00 3e
       -0.4302376 -0.036672007 0.06973502 0.1250325

fc3.bias f4 [10]
000000 f9 2c 60 bd bf b6 28 be 1a d4 c6 bc 8e eb ad 3c
       -0.05473039 -0.16475962 -0.02427106 0.021230485
000010 58 fe 91 3d cc 40 f0 bd 05 ad 83 bd 92 a3 54 bd
       0.0712859 -0.11731109 -0.06429485 -0.051913805
000020 53 e5 64 3e 8b e6 79 3d
       0.22353105 0.06101088
